…
   ]
  },
  {
   "cell_type": "code",
   "execution_count": 13,
   "metadata": {
    "ExecuteTime": {
     "end_time": "2024-04-19T13:42:52.544679Z",
     "start_time": "2024-04-19T13:42:52.461084Z"
    }
   },
   "outputs": [
    {
     "name": "stdout",
     "output_type": "stream",
     "text": [
      "Model: \"sequential\"\n",
      "_________________________________________________________________\n",
      " Layer (type)                Output Shape              Param #   \n",
      "=================================================================\n",
      " conv2d (Conv2D)             (None, 128, 331, 16)      160       \n",
      "                                                                 \n",
      " max_pooling2d (MaxPooling2  (None, 64, 165, 16)       0         \n",
      " D)                                                              \n",
      "                                                                 \n",
      " conv2d_1 (Conv2D)           (None, 64, 165, 32)       4640      \n",
      "                                                                 \n",
      " max_pooling2d_1 (MaxPoolin  (None, 32, 82, 32)        0         \n",
      " g2D)                                                            \n",
      "                                                                 \n",
      " conv2d_2 (Conv2D)           (None, 32, 82, 48)        13872     \n",
      "                                                                 \n",
      " max_pooling2d_2 (MaxPoolin  (None, 16, 41, 48)        0         \n",
      " g2D)                                                            \n",
      "                                                                 \n",
      " flatten (Flatten)           (None, 31488)             0         \n",
      "                                                                 \n",
      " dense (Dense)               (None, 64)                2015296   \n",
      "                                                                 \n",
      " dense_1 (Dense)             (None, 2)                 130       \n",
      "                                                                 \n",
      "=================================================================\n",
      "Total params: 2034098 (7.76 MB)\n",
      "Trainable params: 2034098 (7.76 MB)\n",
      "Non-trainable params: 0 (0.00 Byte)\n",
      "_________________________________________________________________\n",
      "None\n"
     ]
…
